trained_riskScore_model.pth (torch, 14312 bytes, 6 tensors)

fc1.weight f4 [64, 9]
00000000: 5649 2d3e 8577 d8be 1609 aa3e 899c c1be
00000010: fde9 e0bb 81fa 0dbf 5fc8 563d f355 81be
00000020: e27e 593d b835 d23d 88a4 2d3f e526 25be
00000030: e982 473e 5c87 04bd 3258 edbc 736b 853d
00000040: 2d88 c63d 0f53 563e 78d3 723e c378 203f
00000050: 1ffd 783e 1ab3 943d 38d3 0f3e b112 c13d
00000060: d926 99bd 21a8 5b3e d84d c8bd 4fb2 2dbe
00000070: 6dc1 70bd bdeb 35be a1b3 d43e cd8c a7be
00000080: d52e 3c3e 11f9 d7be f9e3 85be ea77 5abe
00000090: 4d0a 0b3e 4ee1 00bf 65ba dcbc a4a0 ab3b
000000a0: f7cc 593e 5c4e 563e a0ff 833e 567c 653d
000000b0: 687f d7be 50fb 9d3e 441f 30be 5ae3 d53d
000000c0: 704d 753e 88b2 2abf 325d debe 9984 6abe
000000d0: 6bee e03e 7a2d c9be dfe5 9cbd 5c10 85be
000000e0: 4f0e 6e3d 8836 723e 2db2 1c3e a5f3 bc3e
000000f0: fbf1 fd3d 8931 b33e e380 2abe b43a 4b3e
00000100: e9cf 183f 2c5e 1f3e fc4f ebbe a7bc 3b3d
00000110: ec94 b4be 8b7c 373e 09dc 34be 97d6 babd
00000120: d130 9cbe 41ff 55be 74fa 933e 1da5 0cbe
00000130: 9db2 38bd 3fe6 b53c 98d3 a8bd ddf6 93bd
00000140: 0c57 50be 294a 103e 5523 95be 39d1 d8bc
00000150: adb1 b9be d271 323e 8c18 89bc 2255 3d3e
00000160: 4781 8cbc d745 76be df34 6a95 ec70 1d93
00000170: 37eb 4ab6 c647 933d c053 a420 50a1 85b7
00000180: c256 b991 1ad8 8a3d 16fd 7595 0876 a93d
00000190: c8c5 3d3d aed3 503e 6a66 613e ee78 9d3e
000001a0: e31a a03e ed1d 3a3d 1adc aa3e 35a7 b13e
000001b0: 6d3d a83d 2448 133f d00f 973e 3ea2 513e
000001c0: 696a 123e 70e8 213e e2ad 2e3d c74f ffbd
000001d0: 0d23 e6bd 0288 36be d075 e8be d942 c73e
000001e0: b082 813e 5172 a4be 1ecc 973e d122 863d
000001f0: 751c 853e 9e1f c5be 745d f43c 2bcc 91be
00000200: 354e 2fbe c2f5 82be e6e8 703e 66a3 813e
00000210: c81e 513d 7f7a 4fbe 668f d33e 9500 f63d
00000220: 821e 3dbe 7858 e03d ba84 24be e2a7 033e
00000230: bafe f5bd cd36 d23e 9a38 9dbe fe5f ccbe
00000240: 9976 3a3e d207 fabe d041 71be 6094 483e
00000250: 1ff0 713e cae3 3f3e 76eb 5d3b 197d 0dbd
00000260: e339 57be cd26 5f3c 2816 203f 7cfa 51bd
00000270: 8d9d 913e ba3f 573e aad4 8dbe 1ce3 2e3e
00000280: fa56 8e3e 8113 f33d 1f2a 583e 7aaa a3be
00000290: feac 6d3e 50d4 a03d 6000 a9be 514f 553e
000002a0: bb01 4ebe 0a58 0d3e e17c 7bbe ce5c e33d
000002b0: 8dba a33e 9856 c63e 8899 ccbe f8b7 633e
000002c0: 5c7d dfbe 0617 9a3e 842b 92be d5b2 2f3e
000002d0: 7008 1c3e ea7e 103f fe33 b23d 5db0 623e
000002e0: 9394 d93d 8eb1 923d e98f 463e 2016 c93d
000002f0: ba81 f33d 961c c13e 4dd0 16bf 74d1 a2be
00000300: 5491 9a3e 720f d9bc 94b9 8fbe a999 423e
00000310: d920 b93e a13d 8f3e 2453 f2bd b597 223f
00000320: cafb 203e 52dd a3bd db85 1fbd 3111 e93d
00000330: 88de 333d 8559 323e cb4d 233e 9d58 cbbc
00000340: a4fb 913e f99c 0e3e ba65 90be 87ed 31bd
00000350: 61ab dabe 2677 7d3e 78da 8ebe 5438 a53c
00000360: 086c 6ebd aa1e 13bf 4e1c 2fbe 532d c33e
00000370: 7a5b 153e 6dd0 73be 0a3e 5d3e c1bf 713e
00000380: 7168 913e b1e0 9d3e 3b51 0bbf 3561 bc3d
00000390: 1603 433e 7109 5ebd 9223 7c3e f9ac d63e
000003a0: 382d 8fbe 55b7 e0be e0ae c13c 4e73 383f
000003b0: 15dc 953d 04b7 bb3e 0e63 bbbe 8b59 84bd
000003c0: 7a34 8bbe 7eb4 ac3e e02c b4be 03e1 fa3c
000003d0: d9f6 373f 3f4b 903d 898a c6bd e2e0 8ebd
000003e0: 5ea4 4fbe 3210 37bd 64e4 91bd 3d71 39bd
000003f0: 704f 483e 5c83 32bf 2adc c93e 16df 323e
0.16922507 -0.42278686 0.33210057 -0.3781474 -0.006863831 -0.55460364 0.052437183 -0.25260887
0.05309952 0.10264152 0.6782918 -0.16128118 0.19483532 -0.03235565 -0.028972719 0.06514635
0.09693942 0.20930122 0.23713481 0.6268427 0.24315308 0.072607234 0.14045417 0.09427393
-0.07478113 0.21450855 -0.097804725 -0.1696255 -0.058778215 -0.17765708 0.41543296 -0.3272461
0.1837724 -0.4218221 -0.26150492 -0.21334806 0.13578148 -0.5034379 -0.026944349 0.0052376557
0.21269594 0.20928329 0.25780964 0.05602678 -0.4208939 0.308558 -0.17199427 0.104437545
0.23955321 -0.6667867 -0.43430477 -0.22902144 0.43931898 -0.39292508 -0.07661032 -0.25989044
0.058119114 0.23653615 0.15302344 0.36904636 0.1239967 0.3499873 -0.16650729 0.19846612
0.59692246 0.15563267 -0.4595946 0.04583421 -0.35269868 0.17918603 -0.17662062 -0.09122961
-0.30505994 -0.20898153 0.28902018 -0.1373486 -0.045092214 0.022204516 -0.08243483 -0.0722482
-0.20345706 0.1409079 -0.2912852 -0.026466953 -0.36268368 0.17426232 -0.016735338 0.18489507
-0.017151488 -0.2405008 -4.7297632e-26 -1.987186e-27 -3.0237259e-06 0.07191424 2.7838102e-19 -1.5929952e-05
-2.9241322e-28 0.06779499 -4.9677006e-26 0.08274466 0.046331197 0.2039325 0.22011724 0.30756325
0.31270513 0.045438696 0.3337105 0.3469788 0.08214841 0.5753195 0.2950425 0.20472047
0.14298405 0.15811324 0.042646296 -0.12466388 -0.11237154 -0.1782532 -0.45402384 0.38918188
0.2529502 -0.32118466 0.29647917 0.065496095 0.25998273 -0.38500684 0.029829718 -0.2847608
-0.17119677 -0.25578123 0.23526344 0.25319976 0.051054746 -0.20261572 0.41320342 0.1201183
-0.18468669 0.10954374 -0.16066256 0.12857011 -0.12011476 0.41057435 -0.30707246 -0.39916986
0.18209304 -0.4883409 -0.23560262 0.1958785 0.23626755 0.18739238 0.003386227 -0.03454313
-0.21018176 0.013620091 0.6253381 -0.05126427 0.28440514 0.21020404 -0.27701312 0.17078823
0.27800733 0.118689544 0.21109818 -0.31966 0.23210523 0.078529954 -0.330081 0.20831038
-0.20117848 0.13803115 -0.24559356 0.111016855 0.31978264 0.3873794 -0.39960885 0.22238147
-0.4365033 0.3009569 -0.28548825 0.17158063 0.15237594 0.56443655 0.08701323 0.2213759
0.106240414 0.07162772 0.19390835 0.09818673 0.11889978 0.37717122 -0.5891159 -0.31800425
0.30189002 -0.026496623 -0.28071272 0.19003929 0.36157873 0.27976707 -0.11832264 0.63512737
0.1572105 -0.08001198 -0.038946014 0.11380232 0.043913394 0.17416961 0.15947644 -0.024822528
0.285123 0.13927068 -0.2820261 -0.043439414 -0.42708877 0.24752483 -0.27901053 0.02016846
-0.058208495 -0.57468665 -0.17100641 0.38120517 0.14585677 -0.23809977 0.21605697 0.23608305
0.28399995 0.30835488 -0.5442082 0.09198228 0.19044146 -0.054208223 0.24622944 0.41928843
-0.27964187 -0.4388987 0.023642957 0.7205094 0.07317368 0.36663067 -0.3659901 -0.064623915
-0.27188474 0.33731455 -0.35190487 0.030624872 0.71861035 0.07045602 -0.09694392 -0.06976487
-0.20277545 -0.04469318 -0.0712364 -0.045274008 0.19561553 -0.6973169 0.39425784 0.17467913

fc1.bias f4 [64]
00000000: 6f20 5b3e cc10 07bd 476d 21be ffb4 27bc
00000010: 1dba 2c3d b518 abbc 5a11 103d 6377 473e
00000020: 9a77 663e 7f0a 473d ed57 16be 406e b2be
00000030: c674 32be 8e60 9f3d 403d 98be 3edf 93bb
00000040: 1c3f 3c3e 7d2c 5fbe 231f 4b3e 059d 353d
00000050: eb09 87be 694a 77bc 9624 f9bc 9e6f a13e
00000060: 9832 11be 4b85 8b3b dd20 22bc 2ee8 133e
00000070: 1c64 313d 0326 c83d 55dc 703e c4a7 363e
00000080: 0869 95be a9c4 f93c 7672 69bd 6170 86bc
00000090: 1a99 ae3d 4d74 67ae f3e5 983a 667e 083e
000000a0: 19d7 f8bd 1dd5 2abe 2ea1 d8bd b486 b6ad
000000b0: ddb5 963d dc04 e33c 344b 66be 8d00 dabd
000000c0: 10a0 84bd 05b9 1fbd 9805 9bbe cba0 523e
000000d0: db38 f63c 19c1 e4bd 131f 6ebe 68c3 9e3e
000000e0: 6b67 a83e 4e88 9dbe 5cde 8e3e 7984 3abe
000000f0: af72 6fbe 0e16 8f3e 7bd2 c8bb 3f1f fabb
0.21399091 -0.032975003 -0.15764342 -0.010236024 0.04216968 -0.020885805 0.035172798 0.19479136
0.22506562 0.048593994 -0.14681979 -0.3484974 -0.17427358 0.07782088 -0.2973423 -0.0045126965
0.1838345 -0.21794315 0.19836096 0.0443392 -0.26374754 -0.015093424 -0.030412953 0.3153047
-0.14179456 0.004257833 -0.0098955305 0.14444038 0.043308362 0.09772875 0.2352155 0.17837435
-0.29181695 0.030489283 -0.056993924 -0.016411008 0.085252956 -5.2626615e-11 0.001166521 0.13329467
-0.121504016 -0.16682859 -0.105776176 -2.0750825e-11 0.073589064 0.027712278 -0.22489625 -0.10644636
-0.06475842 -0.038994808 -0.30277705 0.2056915 0.030056408 -0.11169643 -0.23254041 0.31008458
0.32891402 -0.30768055 0.27904022 -0.18214597 -0.23383592 0.27946514 -0.006128607 -0.0076331194

fc2.weight f4 [32, 64]
00000000: 4426 4d3e 8550 e33c 4472 19bd d5a2 c23e
00000010: c6fc 19bc ae9c d63e 844a 8ebd 0dc3 523e
00000020: eae9 253e f51a 1f3e 962a df92 ec6e d2be
00000030: b04e 1ebe 6ea0 18bd 7d73 08be a249 213e
00000040: c7e7 51bc 01b4 82be 1b8b c03d da9f 793e
00000050: 4b94 34be 88ee ddbd 1a7a aebd 49cb 653d
00000060: e3ac 22be 3c4c 04be 4676 be3e 46b1 d93e
00000070: eaba 7b3a a0cc b93d 62d9 be3d c4a1 1f3e
00000080: ca86 1fbe d0a4 123f 30c1 bdbd b449 d83d
00000090: 4a24 843d 69e0 2318 5086 073e f473 fd3c
000000a0: ba63 10be 32df 00be f1ab 30be 0d57 c612
000000b0: a1db c3bd d7c8 1b3f 0005 143f 749b 503b
000000c0: 3b35 1bbe 3c0a 04be e0a0 2c3e 74b4 963e
000000d0: 0242 54bd 98cb 1f3e 4082 3fbd 9dbc a53e
000000e0: 8669 4f3e 352f afbd ceb8 b7bd f601 8abe
000000f0: dc0c 093d c9db c93d 4cd9 b33c 3741 8dbd
00000100: 482d 2ebe 83c1 003e 89f5 1b3e ee08 94be
00000110: 7ae4 23bd 7251 78be 2e15 e5bc c1dc 5a3d
00000120: 7a42 aebd a24e 0fbe 9824 960f c7e3 49bc
00000130: 9a01 ad3e 8afe dfbc 7900 493e 650b 9ebd
00000140: dbc7 48bd 608f 973e 468c 14be 3999 4dbd
00000150: 999c a43e 8735 2a3e 97f2 973d e1ad c43d
00000160: fa3c cc3d b63c 473e c12a 533e 4797 d43d
00000170: 57b9 b83d f3bb ba3d 7c53 bbbd 8c65 353e
00000180: 0bc8 9a3e 6857 01bf 9732 273e 1159 29be
00000190: def7 98bd 0b21 1e91 26eb 31be e35a c9bd
000001a0: 647f 943e 108c a13e f574 123d c775 9e97
000001b0: 7253 cb3d b759 35be 3226 fbbe 2351 283e
000001c0: 0aff bb3d 22e6 d63d f151 b9bd 3afa 6bbe
000001d0: 9ccd a43d 6128 8e3e 9082 7d3e 3abd 3cbd
000001e0: cfae a3bd e5b4 d33e 6de3 e03b a7e5 8fbc
000001f0: 3b73 533e e39e ce3d c00c 83be 4e6d bb3d
00000200: f30f 843d 3ed6 d3bd caa5 0bbe 12cb ee3e
00000210: ac63 443e 6618 f43e ae23 52bc 4730 a63d
00000220: fbce a43d f491 253e a453 ff11 0742 903d
00000230: 2612 f2bd 823e 6a3e 384b 0abe b0fb b43e
00000240: 2bae 253e adbb 79be 1abb 203e 73c3 863d
00000250: a0e4 28be 0a76 b9bc 90ea cfbd b8c1 8b3d
00000260: d876 683d c353 923d 76ab 813d 7946 32bd
00000270: b4bc c83c 806c 3a3d aa1f d23c 9d8c 4a3c
00000280: 144f d8b8 c4cc a23e 4ae5 1a3e b1d7 a13e
00000290: cd98 413e 98ab f70f 7d3d 703e 5034 173e
000002a0: 8aa9 90bd 49c9 85bd ded5 2f3d 4c16 af95
000002b0: b802 ca3d d855 b33e 1df3 bf3e 48fd 4cbc
000002c0: 83d2 2cbd 4b58 043e 3b86 3f3e 18e4 ff3d
000002d0: ea4e cabc c3de 46be b2c3 09be fec6 0cbe
000002e0: 2169 61bd 5cca 46be 7ad8 033d 8e0b 323e
000002f0: 8b26 a43d 086e 733c 1e52 943e f492 c33d
00000300: 2f3e 333e f4dd 03be b533 22be 0411 0c3f
00000310: 39b7 bc3d d368 133f 43e2 683e 2d71 1d3d
00000320: 7a29 e43c 0f71 2c3e 719c ba18 aebf 18bd
00000330: 05b5 3ebe 67e4 4c3e 4601 16be 9d0e b53e
00000340: eb4e f63d 0014 c8bd 6554 893e 15e2 253e
00000350: 97c6 e9bd 93ed be3d d34a c9bd 8910 41bc
00000360: 3e48 4e3e 6d64 443e 23d6 d23d ef08 fbbd
00000370: acb0 f33d cab9 603e 5cfb 363e 5fe1 c6bc
00000380: c9bd 01be 3f23 ad3e e647 dd3d 7892 b43e
00000390: c5cd b03d c6c8 5290 c58e bc3e eb12 803d
000003a0: 30b8 f5bd 74d3 11be a087 603d 1941 0113
000003b0: 4814 363e 5563 bd3e dd3a fb3e cfc7 653d
000003c0: 1831 573e 2a7b 333e 7bdd 153d 5f21 4a3e
000003d0: abb2 ed3d 51ee 1cbe 7122 46be ac3a 1fbe
000003e0: 73d0 4a3d 00ff 0fbe 4e1e 0b3e dd2f 393e
000003f0: 0d6b 32bc 912f fe3d 312e d83e d6d2 4e3e
0.20034128 0.027748356 -0.037462488 0.38014856 -0.009398645 0.41916412 -0.069478065 0.20582218
0.16202512 0.15537627 -1.4083777e-27 -0.41100252 -0.15459704 -0.037262373 -0.13325305 0.15750745
-0.012811608 -0.25527957 0.09401532 0.24377385 -0.17634694 -0.10836512 -0.08519383 0.05610207
-0.15886264 -0.12919706 0.3719961 0.4251806 0.00096027425 0.09072232 0.09318806 0.15589052
-0.15578762 0.57282734 -0.09265363 0.10560933 0.06452234 2.1180554e-24 0.1323483 0.03093908
-0.14100543 -0.12585142 -0.1725309 1.2517016e-27 -0.09563375 0.6085333 0.5782013 0.0031830939
-0.15157025 -0.12894529 0.16858244 0.2943455 -0.051820762 0.15605009 -0.046755075 0.32370463
0.20255098 -0.08553926 -0.089707956 -0.2695462 0.03345953 0.09856374 0.021954201 -0.06897204
-0.17009461 0.12573819 0.15230383 -0.28913063 -0.040012814 -0.24249819 -0.0279642 0.053433184
-0.08508773 -0.1399484 1.4805237e-29 -0.012322373 0.33790284 -0.027343053 0.19629087 -0.07717017
-0.049018722 0.29601574 -0.14506635 -0.050194953 0.32150725 0.16621982 0.07419317 0.09603477
0.09972568 0.19456753 0.20621778 0.10380416 0.09019726 0.0911788 -0.09146783 0.17714518
0.30230746 -0.50523996 0.16327892 -0.16537882 -0.07469152 -1.2474184e-28 -0.17374858 -0.098317884
0.2900344 0.31552172 0.03575607 -1.0240242e-24 0.09928025 -0.17710005 -0.49052578 0.16437201
0.09179504 0.10493113 -0.09048832 -0.23044673 0.080470294 0.27765182 0.24756837 -0.046078898
-0.079923265 0.4134895 0.0068630488 -0.017565561 0.20649426 0.10088899 -0.25595665 0.091517076
0.064483546 -0.10343598 -0.13637462 0.46639305 0.19178647 0.47674865 -0.0128258895 0.08114677
0.08047291 0.16168958 4.0283454e-28 0.07043844 -0.11819868 0.22875407 -0.13505256 0.35348272
0.16179721 -0.24387999 0.15696374 0.06580248 -0.16493464 -0.022639293 -0.10152161 0.06824058
0.056753963 0.071448825 0.06331532 -0.04352424 0.024504043 0.04551363 0.025649864 0.012362626
-0.00010314412 0.3179685 0.1512653 0.31609872 0.18905945 2.4422176e-29 0.23460956 0.1476605
-0.07063587 -0.06532533 0.04292857 -7.0717115e-26 0.098638 0.3502643 0.37490168 -0.012511559
-0.042192947 0.12924306 0.18703549 0.12494677 -0.024695832 -0.19420914 -0.13453558 -0.13747784
-0.0550319 -0.19413131 0.03218887 0.1738722 0.08015164 0.014857776 0.289689 0.095495135
0.1750419 -0.12877637 -0.15840037 0.54713464 0.092146344 0.57581824 0.22742562 0.03843801
0.027851809 0.16840003 4.823784e-24 -0.037292175 -0.18623741 0.20009004 -0.14648923 0.35362712
0.12026771 -0.0976944 0.268222 0.16199525 -0.11414831 0.093226574 -0.09828725 -0.011783727
0.20144746 0.19178934 0.102947496 -0.12257563 0.11898932 0.21945873 0.17869323 -0.024277387
-0.12670054 0.33815953 0.10804729 0.35267997 0.086329974 -4.1569868e-29 0.36827675 0.06253608
-0.119980216 -0.14240819 0.054816842 1.6314185e-27 0.17781174 0.36989847 0.49068347 0.056098755
0.21014822 0.17527452 0.036588173 0.19739293 0.11606344 -0.15325285 -0.19349076 -0.15549725
0.0495152 -0.14062119 0.13585779 0.18084665 -0.010889781 0.12411416 0.4222274 0.20197615

fc2.bias f4 [32]
00000000: 814f 303e ae0d a43c d802 093e dc19 053e
00000010: f1a9 ac3d 97fb 4dbd 9579 9fbc cff0 3abd
00000020: fee1 563e 77b9 d2bc 2309 d53b 4958 dbbc
00000030: a435 063e eefb 013e 6767 f03d 432f 803d
00000040: 95a4 163d 7c4a 8ebd a2ea 603e 140e 75bc
00000050: 5279 b33d 0530 2e3e 5725 623d 3711 f13d
00000060: db41 d33c 5e56 8abd cc43 8bbd f1de 4c3e
00000070: eccf 2d3d aa43 c53d 1623 4fbd c9e6 8f3c
0.17217828 0.020026054 0.13379991 0.12998146 0.08430851 -0.050288763 -0.019467155 -0.04563981
0.20984647 -0.025723202 0.0065013333 -0.026775496 0.131064 0.1269376 0.117384724 0.062590145
0.03677805 -0.069478005 0.21964505 -0.01495697 0.087633744 0.17010505 0.05521139 0.117708616
0.025788238 -0.067547545 -0.068000406 0.2000692 0.042434618 0.096320465 -0.05057057 0.017566102

fc3.weight f4 [4, 32]
00000000: 85d1 253e d89a 04bf 6fdd 36be 98f2 8cbd
00000010: 11ce b6bd 5148 b6be f7b9 763e 42ca 4bbe
00000020: 5b6e aa3e 389f f5be bcd0 debe 509e 3fbf
00000030: 8825 29be 370a 59be 1578 ba3e 2603 05be
00000040: 8ad1 453e 8154 c8be bd01 efbc 6874 9abe
00000050: 1188 573e a0c3 a73c 692a 30be f4d3 b2bd
00000060: 5647 29bf 5624 25bf 8562 02bf 25ba 913e
00000070: 6eee 0a3d 1d1b 1dbd 5ad0 89bf b587 cd3d
00000080: a0ce 8c3e 83a1 ddbd aba1 4b3e fc4b 2c3e
00000090: d37f 603e 46f6 083e 8a65 b43e 9b7f 17be
000000a0: 232e b43e de4e 0a3e 05f7 39be 0616 34bd
000000b0: d45c 883e 8d2e 64bd 4b10 08bf d94a 553e
000000c0: 9b54 b43e 3e7f 96be 3853 383e c400 08bf
000000d0: 31ed 573c 3ce7 963e 90f5 febe fcc9 1e3e
000000e0: c72c a7be 58a1 6abd 5641 d5be cf18 c43e
000000f0: 8ceb a03d 276b 54be b646 963b d6e7 15bd
00000100: 8b80 0fbf 8dbe 193e 4714 523d 3d66 f43d
00000110: ffc5 cbbe 2e6b 133e 9ffc f8be 07be d1be
00000120: 7819 89be c776 353e b8c6 413e db1d 5c3e
00000130: adf2 fbbc ec62 f1be b12c 993d 81a4 3e3e
00000140: f499 83be 2111 553e 9a51 bb3d 5c3e 0dbd
00000150: a054 47be 934c 663e bf7a 0a3e 2c22 713e
00000160: 6884 063e 3fff a63e 26bf 0e3c 366e debe
00000170: fe96 fdbe 8641 ea3d 6cc6 943d 0841 59bd
00000180: 9177 963c 69d6 2d3e 2c21 f7be e883 b2be
00000190: 0991 1b3e 7aa9 81be 9d60 523e 1acd c83e
000001a0: 0023 f3be 5f1e 073d ce15 ea3d 964b 143d
000001b0: 5f64 7ebe 1589 9c3e e264 923e 7f41 c0be
000001c0: 6745 dcbe e4d4 923e bec6 0cbf 6490 803e
000001d0: c33e 6ebe 3484 a6be 5556 973e 8413 96be
000001e0: aabd 113e 7344 8c3d 187f b13e bae7 fbbe
000001f0: c387 833e 75a8 35be 2951 a13d 295c 12be
0.16193207 -0.5179877 -0.17857908 -0.068822086 -0.08926023 -0.35602048 0.24094377 -0.19901374
0.3328732 -0.47973037 -0.43518627 -0.7485094 -0.16518223 -0.21195303 0.3641974 -0.12989482
0.19318214 -0.3912697 -0.029175634 -0.30166936 0.21047999 0.020479023 -0.17203678 -0.08731833
-0.66124475 -0.6450857 -0.5093158 0.2846233 0.03391879 -0.038355935 -1.0766709 0.1003565
0.27501392 -0.108218215 0.1988589 0.1682586 0.21923761 0.13375196 0.35233718 -0.14794771
0.3519145 0.13506648 -0.18160637 -0.043966316 0.26633322 -0.055708457 -0.5314986 0.20829333
0.352208 -0.29393953 0.18000495 -0.5312617 0.013179109 0.29473293 -0.49796724 0.15506738
-0.3265135 -0.057282776 -0.4165141 0.38300177 0.07857427 -0.20744 0.004586066 -0.03659805
-0.56055516 0.15014096 0.05128887 0.11933563 -0.39799497 0.14396355 -0.48630235 -0.40965292
-0.26777244 0.17721091 0.18923461 0.21495764 -0.030755365 -0.47145784 0.07479227 0.18617441
-0.25703394 0.20807315 0.09146424 -0.0344833 -0.19465876 0.22490148 0.13523386 0.23548192
0.13136446 0.32616612 0.0087125655 -0.4344346 -0.4952926 0.11438279 0.072644085 -0.053040534
0.01836756 0.16976322 -0.48267496 -0.3486626 0.15192045 -0.25324613 0.20544668 0.3921898
-0.4748764 0.03298795 0.1142994 0.036204897 -0.24842976 0.30573335 0.28592592 -0.3754997
-0.430217 0.28678048 -0.54990757 0.2511016 -0.23266129 -0.32522738 0.29558054 -0.29311764
0.14232507 0.06848993 0.34667277 -0.4920023 0.25689515 -0.17740043 0.07876808 -0.14292969

fc3.bias f4 [4]
00000000: 0319 e5bb aa56 593e f4fe 01be ebb5 55be
-0.006991507 0.21224466 -0.12694913 -0.20870177
