trained_riskScore_model.pth (torch, 14312 bytes, 6 tensors)

fc1.weight f4 [64, 9]
00000000: eb09 b73e 2002 c73e 3196 c03e d40e e4bd
00000010: cab6 96bd 0fc4 8abe 7d5c 153e 2187 753e
00000020: c29c a23e 851a 963d f9f0 bd3d 8193 a63e
00000030: fb39 0dbe bf4d f63d 0293 543d 2940 3dbd
00000040: e24a 913d 477b 94bd 460d 9abc 7ece cf34
00000050: 11e7 d9bc dc7e d7b7 a28a bbbd 9506 a2bd
00000060: 8f64 053e 29f8 04be 1ba3 75b7 a6e1 56be
00000070: 3223 6a3d 1157 4cbe 2a0a 993e 8ab3 3fbe
00000080: 517d d23c 144a 083d 0ecd e03d a9b0 b6be
00000090: 546b f3bd 6c4f cebd 61f4 a3bc 7a74 09be
000000a0: 5a2e 6abd cb0d a5bd c55c 943e cfa9 0bbe
000000b0: 57d6 89bd ded4 97be 7ff5 f9bd dca6 843e
000000c0: 77ba 6d3e 8d98 5ebd 11db a2be e582 8c3d
000000d0: 377a 1c3e eb4c 9abe d47d 14bc 0f8e b73d
000000e0: 7277 36be 2c6b b8bd c04b 4bbe 3ca6 ce3e
000000f0: a2f1 12be 676b 423e 587a 7b3e 8106 053e
00000100: 0d94 3fbe e908 44be a3d2 c33e 8d6b 2b3e
00000110: ee39 cc3e 55f6 b33e ef17 ee3d 0bd1 94bd
00000120: d98c 5d3e 0443 c6be a42f b2bd 6a83 45bd
00000130: 1c19 71be 17bd 9e3e 7299 aabe 803d 723e
00000140: 3c1a ad3e f985 923c 84c4 71be fcd6 2abd
00000150: addb 42bd fd37 cfbd 4801 d53e 24d8 1d3d
00000160: 494c ebbd 765a 05bd ae84 45bc 4a80 8fbe
00000170: 294e 5b3e 0325 84be dbeb 3cbe 4e38 7f3e
00000180: 7e7b 0dbe c370 6f3b 6302 abbe 3bc9 d33e
00000190: 32a1 df3e f422 e43c 0313 903d 8c50 70be
000001a0: 8240 e93d eb88 25be 98da c2bd d431 ba3d
000001b0: 64f2 7cbc 6b5d 7b3e c789 1f3c 9949 b43e
000001c0: a647 913e 9c00 da3d 3cae 9a3e 25cc 7c3e
000001d0: 00be 893e 3be7 c43e 0938 da3e 6908 a13d
000001e0: c1e2 853e dbe1 58be 6961 1a3e f9ed 1fbe
000001f0: aa79 6a3e d1ab f13d 6fba 52bd 69f4 4abd
00000200: 32e2 ed3c 507c 16be 57cc 313b d0a4 eebd
00000210: 682d 43bd 5d1c 913e 6a10 a53e a8a2 77be
00000220: 8eed 98bc dfac 623e acbb 323d 65c7 963d
00000230: 3c82 5dbe 5b59 29bb 4168 57be aca2 353b
00000240: 4c2d 763e 4a93 6d3d c82c 443d 844a 1abe
00000250: 3693 b03d 11bc 4cbe 7bf4 ecba 0049 cab8
00000260: c31a a4bd 30e0 a53e c3f4 cc3e c0b3 a5ba
00000270: 85ef c1bd 6d5f 803d 25e6 bb3e ac67 a6bc
00000280: 7d06 a23e 0fc3 263e 25ff 64be 9fd7 473e
00000290: 35f4 b2bd 3c95 0b3e c644 20be 8747 95bd
000002a0: 69ec 7e3e b980 e63d 3622 39be e4af 843e
000002b0: 221e a33e 3630 2c3e f438 5d3e f8cb 17be
000002c0: a125 98bc eb47 fb3d 9c33 04bc 22d2 673e
000002d0: 5ac0 2e3e 0499 983e ab18 f3bd c50e 92be
000002e0: 5ccc 94bd 6b4e 34be 1efc aebc c3bb e83d
000002f0: 28a4 a33e 3e59 933e 8fab a6be 9743 993c
00000300: 63ba 7dbe c0bf b23e ffd7 3bbe a2c4 6dbe
00000310: 2fd8 a8be aa5a 5d3e c565 da3d a844 ae3e
00000320: 267e be3e 4256 673a 1450 503e 141f 02bd
00000330: 6e95 923d 93e9 ab3e 4f30 38be 4bd4 d5bd
00000340: 310b 74be fe86 a6bd 3981 223e be08 413e
00000350: ea10 833e 490a 53be 2442 20bb cce6 b63d
00000360: 23bd 67be fba7 efbd 100b b93e e277 8bbe
00000370: cfd2 8abd d9e5 fbbd 0e13 48be e992 8c3e
00000380: 6b28 80be e675 723e 2a44 9fbe 5780 c4be
00000390: 471a ba3e 1e6d 34bd 912e a33e 1306 4d3e
000003a0: 2648 dbbd d868 b03e 121e 9d3e 1535 64be
000003b0: 1490 e93d b559 79bd e1d1 79bc 5d24 8dbd
000003c0: afbf 21bd 5fd5 c3bd 2e8d d3bd d141 e0bd
000003d0: d54c 3c3e c14e 0f3e b0d9 9bbe 3056 cabd
000003e0: 0d34 8dbe c536 b2bd c54b 8a3e fb9a 9cbc
000003f0: 9d7d 7bbe 3465 fe3d 70bd 5ebe c4ad a33e
0.35749754 0.3886881 0.37614587 -0.11135641 -0.07359083 -0.27102706 0.14586063 0.23977329
0.31760222 0.07329277 0.092744775 0.32534412 -0.13791649 0.12026548 0.05189801 -0.046203766
0.07094361 -0.07250076 -0.018805157 3.8706997e-07 -0.026599439 -2.568907e-05 -0.091573015 -0.07911412
0.13026641 -0.1298529 -1.4641114e-05 -0.20984516 0.05716247 -0.19955088 0.29890567 -0.18720832
0.025694521 0.03327377 0.10976611 -0.35681656 -0.118857056 -0.10073742 -0.02001399 -0.13423339
-0.05717311 -0.080592714 0.28977028 -0.13638996 -0.06730335 -0.29654592 -0.12205028 0.25908554
0.23215662 -0.054344703 -0.3180776 0.06860904 0.15280996 -0.3013681 -0.009063203 0.089626424
-0.17819002 -0.090048164 -0.19853115 0.40361202 -0.14349988 0.18986283 0.24558389 0.12990762
-0.1870882 -0.19144024 0.3824664 0.16740246 0.39887947 0.35148874 0.11625659 -0.07266434
0.2163576 -0.38723004 -0.08700493 -0.04822103 -0.23544735 0.3100364 -0.33320194 0.23656273
0.33809078 0.017886149 -0.23610121 -0.04170893 -0.04757278 -0.10118101 0.4160254 0.038536206
-0.114891596 -0.032556973 -0.012055559 -0.28027564 0.21416534 -0.25809488 -0.18449347 0.24923822
-0.1381664 0.0036535717 -0.33400258 0.41364464 0.4367767 0.027848698 0.07034876 -0.23468226
0.11389257 -0.16165511 -0.0951435 0.09091535 -0.01543865 0.24547355 0.0097374385 0.352124
0.28374976 0.106446475 0.30211055 0.2468725 0.2690277 0.38457665 0.42620876 0.07862932
0.26149562 -0.21179907 0.15076222 -0.15618123 0.22897974 0.118003495 -0.05144733 -0.049549494
0.029038522 -0.14695859 0.0027129853 -0.11652529 -0.047650725 0.28341952 0.32239085 -0.24183142
-0.018667962 0.22136258 0.04363601 0.0736225 -0.21631712 -0.0025840614 -0.21035863 0.0027715368
0.24040717 0.058001794 0.04789427 -0.15067488 0.08621828 -0.19993617 -0.0018078232 -9.645708e-05
-0.08012917 0.32397604 0.40030488 -0.0012642071 -0.09469513 0.06268201 0.36699024 -0.020313106
0.31645575 0.16285346 -0.22362955 0.19515847 -0.08737985 0.13631147 -0.15651235 -0.072890334
0.24894871 0.11255021 -0.18079457 0.25915444 0.31858927 0.16815266 0.21603757 -0.14823902
-0.01857263 0.12269577 -0.008068945 0.22638753 0.17065564 0.29804242 -0.118699394 -0.28526893
-0.07265541 -0.17608039 -0.021360453 0.11363938 0.3196118 0.28779024 -0.32552764 0.018708987
-0.24778132 0.3491192 -0.18344115 -0.2321954 -0.32977435 0.21616617 0.10663942 0.34036756
0.3720562 0.0008824804 0.20343047 -0.03176792 0.07157408 0.3357664 -0.17987178 -0.10440882
-0.23832394 -0.081312165 0.15869607 0.18850991 0.25598842 -0.20609392 -0.0024453485 0.0893074
-0.22630744 -0.117019616 0.36141253 -0.272399 -0.0677849 -0.12299699 -0.19538519 0.27455834
-0.25030836 0.23677787 -0.31106693 -0.38379166 0.36348173 -0.044049375 0.31871465 0.20021848
-0.107071206 0.3445499 0.30687004 -0.22285874 0.11404434 -0.060876567 -0.015247793 -0.06891701
-0.039489444 -0.09562182 -0.10329662 -0.109500535 0.18388684 0.13994886 -0.3043952 -0.0987972
-0.27578774 -0.08701853 0.27010933 -0.01911687 -0.24559636 0.12421647 -0.21751952 0.3196851

fc1.bias f4 [64]
00000000: d0d5 c73d 17a6 2e3b f0aa 36be 3f26 563e
00000010: f6e9 e5bd 627d 273e 2a47 3cbe 9a4b 6cbe
00000020: b655 753e f2bf e13c 6774 8d3e 72e6 223e
00000030: ce4b 82be 8f58 1ebe ce2b 8ebe 77d7 0cbe
00000040: 1777 b1be 423f 83be c0ce f83a 7f72 603d
00000050: 49f2 9bbe 7a76 153e 86ad 8d3e 2a19 433b
00000060: 6a9a 663e 5aae 3cbe 3a7c cebd 1d53 533e
00000070: 4668 b43e 35cb 4ebe 4a7f 2b3e c3d1 d3bd
00000080: 3b09 a3be cebe d7bd a11f 60be 2315 13bc
00000090: 8567 aa3e 4f23 79be 28ae f13d 8734 b33e
000000a0: e8b6 c93b 2a61 3e3d 1b25 d23c ff8a 283d
000000b0: 2227 623e ac1b 523e 190b 833d e726 52be
000000c0: 86e4 a6be a46a 343e e721 053e b2c1 4a3e
000000d0: 0deb abbd d70e a03e 7a0b e73d 266e 343e
000000e0: 1c21 b53d fbaf 9cbd 5aa8 b7bd 8b0a 973e
000000f0: d93d ce3e 986a 9b3e f671 29bd b8a3 01bb
0.097575784 0.002664929 -0.17838645 0.20913027 -0.11226265 0.16356423 -0.18386522 -0.23075715
0.23958477 0.027557347 0.2762787 0.1590822 -0.2544846 -0.1546347 -0.27767795 -0.13754068
-0.3466117 -0.256342 0.0018982515 0.054796692 -0.30458286 0.14595976 0.2767145 0.0029769638
0.22519842 -0.18425885 -0.10082288 0.20637174 0.35235804 -0.20194705 0.16747776 -0.10342743
-0.3184298 -0.1053444 -0.21887065 -0.008977207 0.33282104 -0.24329875 0.11800796 0.35001013
0.0061558373 0.04647938 0.025652459 0.041148182 0.2208524 0.20518368 0.06398601 -0.20522653
-0.32596225 0.17618805 0.13001214 0.19800451 -0.08394442 0.31261322 0.11281486 0.17620143
0.08844206 -0.07650753 -0.089676574 0.2950023 0.4028156 0.30354762 -0.041368447 -0.0019781422

fc2.weight f4 [32, 64]
00000000: da3d 1d3e e0fa a63d 3f1a 1539 0f92 493e
00000010: 0517 bf3d ad13 ab3c 83ba aabd 82d9 113e
00000020: 8e9f 573d c220 49bd 436a b83b ce88 c23d
00000030: d81e 92bd 6a67 963d 75ee dabc 6fe8 05bd
00000040: d5e7 9d3d d08f 6c3c 4d82 af3d 908b 83bc
00000050: 6e7d 503b 3716 813d a915 4abd 993f 04be
00000060: bbbe 4b3e 860a 0ebd b97c 263d a3c3 203e
00000070: dd21 323e 3d89 2abc 8f41 4ebd a4f0 5cbb
00000080: dfde f8bd c395 3fbd 3683 9dbd 6a8c 66bd
00000090: db9c 3d3e 0a7c f13d 0a2a b8bd c0fd 52bd
000000a0: 1756 16bd 33fd 673d 8cc2 8f3d f78e a13d
000000b0: da8f 0a3e df5e a03d 5ad4 313d 5b70 983c
000000c0: c861 de3c 9136 7a3d c840 1b3d 34a0 063e
000000d0: 6a99 fdbc 6c62 f73b c759 c43d b92c 593c
000000e0: 9a05 d23d 6aa4 553e b5d8 bf3c df43 80bc
000000f0: 81a0 0d3c d139 983d de33 c23d 7861 a23d
00000100: d339 a43c 8846 5e3c 3b55 b4bc 4bfa e7bd
00000110: 16b0 a2bd bd46 c83d 6b06 dcbc b0db 113e
00000120: 7066 c73b d525 94bd 96e1 b7bd 55e5 003e
00000130: b75e fa3d d090 263c 6ec9 adbc 5411 943c
00000140: 2ce4 303c 2956 d0bc 17e9 d93d 68f0 c73d
00000150: cbb7 723d 1895 ce3b fc9c 813d 57b9 56bd
00000160: adf3 d3bb 3471 eb39 659c 56bd 66a4 21bd
00000170: d342 d03c 8dfd 273e 8c37 563d 0588 f93c
00000180: e9de 3c3e da13 05bd 719e ed3c 0635 a2bc
00000190: b3a7 403e db7f 8a3d a672 dcbc f5bb a4bc
000001a0: 2b93 0bbe b2a0 4cbd 5872 43bd a2eb 1cbd
000001b0: 51e5 823b 74ee 513d c613 15bd 7230 713c
000001c0: 3406 f33c 5fa7 9a3c 8dfb c63d e96b 99bc
000001d0: 0319 a5bd 713b 38bd 04ba c4bd 2df1 423c
000001e0: 0d9f 2bbc 424a 973d b306 c2b8 4ec6 8cbd
000001f0: d550 e9bd 8173 34be da58 cf3b 06a4 84ba
00000200: 40b3 92bd 5ecb b53b 5cb6 7cb9 beb4 423d
00000210: 5c86 c5bb 74a6 933d 14fd 26be a130 54bd
00000220: 50d1 63bd 28ec 1d3e 018a ac3c ecb4 85bd
00000230: 3f91 10be f92c 5ebc f2d4 3cbd 8e79 7abd
00000240: 8b64 2cbd aa16 cabd 313d c33c a5ba 57bd
00000250: 7445 4e3d cef9 183e 0a4e f73a a258 c5bc
00000260: 8e3b af3d 8776 e3bc 3665 643e ff3c a4bd
00000270: dec1 aa3d 277b bdbd f09d e6bc f253 f2bc
00000280: 0671 4ebd 3d36 edbc 9f28 27be fd1f 5a3d
00000290: 33d1 7a3d 0740 a13d 182d 773d 474c d33d
000002a0: d863 debc bd5c 303e 675f 8abd 7a73 ebbd
000002b0: 4a49 55bc a55b 673d 6ad7 263d 68b1 b4bd
000002c0: 9e28 263d 8266 2dba 582f ae3d 6478 dd3d
000002d0: 8d54 b53d b481 0e3e 6e29 12bb 2e72 273d
000002e0: 9cf1 fb3d 517c 353d e183 1c3b eb99 053e
000002f0: bd77 333e ba0a 3b3e e813 f9bd e77f bc3c
00000300: a0c9 16be f0e7 a23c 3331 acb8 54c0 f23b
00000310: 5d8d 0bbe 5063 16bd 4d35 4f3b f1a1 143e
00000320: 29af 403e 71bc f43b 0777 083e cc6d 2bbe
00000330: c5dd 58bd d7cd 4cbd 862b 12bb d940 1e3d
00000340: eeaa ac3d e6a3 fbbb 81fe 593d 8b18 87bd
00000350: 749d c03c d2d7 f13d 18c2 9d3d eb4d 663e
00000360: e42e c8bc 1a2c 9e3d f0e0 d33d eca8 653c
00000370: e0d3 f03d a29a 07be 3fa6 e7bd 3517 253b
00000380: d83f 8f3d 6684 7dbd 6f39 82bd 1846 c13d
00000390: f0d9 0e3e c536 b1bc 04c7 74bc fe0f ee3d
000003a0: 6e38 ca3d 7676 9e3d 0533 313d 8444 223d
000003b0: 389b b43d 4aee ee3d 402e 9fbd 3a9b f2bc
000003c0: ca43 db3c 069c e13d 3e8b b93d 2e26 dc3d
000003d0: 8650 fe3d e026 493e e494 683c ef5c c83d
000003e0: 4be7 153e 414b 09be 516b e0b7 4de2 e73c
000003f0: c5a2 53bd 7626 043e 1618 fdbb 3c9c 4b3e
0.15355626 0.08153319 0.00014219525 0.19684623 0.093305625 0.020883406 -0.083363555 0.14243129
0.052642398 -0.049103506 0.0056279018 0.0949875 -0.07134789 0.073439434 -0.026725033 -0.03269237
0.07710234 0.014438584 0.08569775 -0.01605776 0.0031813043 0.06303065 -0.049337063 -0.12914886
0.19896977 -0.034678005 0.04064629 0.1569963 0.1739573 -0.010408697 -0.05035549 -0.003371277
-0.12151884 -0.046773683 -0.07691042 -0.056286253 0.18516867 0.11791237 -0.08992393 -0.051511526
-0.036703195 0.056637954 0.07019529 0.078885965 0.13531438 0.07830595 0.043415405 0.018608263
0.027146235 0.061087195 0.037903577 0.1314705 -0.030956943 0.0075495746 0.09587436 0.013255292
0.10254975 0.208635 0.023418764 -0.015657363 0.008644224 0.074329026 0.09482549 0.07928747
0.020047104 0.013566621 -0.022013297 -0.113270365 -0.07943742 0.09779117 -0.02685853 0.1424396
0.0060852095 -0.072337784 -0.08978574 0.12587483 0.12225097 0.010166362 -0.021214213 0.018074669
0.010796588 -0.02543171 0.106401615 0.09762651 0.05925731 0.0063043945 0.063287705 -0.052422848
-0.0064682574 0.00044907036 -0.052395243 -0.039463423 0.02542249 0.16405316 0.052299067 0.030460367
0.18444408 -0.032489635 0.029006215 -0.019800674 0.18813972 0.06762668 -0.026910137 -0.020109156
-0.13630359 -0.04995794 -0.04771647 -0.038310654 0.003994622 0.051252797 -0.03639581 0.014721023
0.029666044 0.018878637 0.09715948 -0.018728213 -0.08061411 -0.044978563 -0.09605792 0.011898321
-0.010474932 0.073872104 -9.251889e-05 -0.06873761 -0.113923706 -0.17622186 0.0063277306 -0.0010119684
-0.071630955 0.005547925 -0.00024100527 0.04753565 -0.00602798 0.07209483 -0.16307479 -0.05180419
-0.055619538 0.15422118 0.0210619 -0.06528649 -0.14117907 -0.013560527 -0.046101518 -0.06115108
-0.042088073 -0.09867604 0.02383289 -0.052668232 0.050359204 0.14939043 0.0018867862 -0.024090115
0.08556281 -0.02776648 0.22304234 -0.080194466 0.083377585 -0.09252005 -0.028151482 -0.029581044
-0.050400756 -0.028956527 -0.1632409 0.053253163 0.061234664 0.0787354 0.06034574 0.10317283
-0.027147219 0.17222877 -0.06756478 -0.11496635 -0.013017962 0.056483883 0.04073278 -0.088229
0.04056608 -0.0006614701 0.08505124 0.10813978 0.088540174 0.13916665 -0.0022302526 0.040880375
0.12301943 0.04430801 0.0023882317 0.13046996 0.17526145 0.1826581 -0.12162 0.023010207
-0.14725351 0.019885987 -8.210763e-05 0.007408181 -0.13628145 -0.036715806 0.0031617463 0.145149
0.18816818 0.007468753 0.13326655 -0.16741103 -0.05294587 -0.05000099 -0.0022303774 0.038636062
0.0843104 -0.0076794503 0.05322123 -0.06596478 0.02351258 0.118087426 0.07703036 0.22490661
-0.024436422 0.077232555 0.10345638 0.014017325 0.11759162 -0.13242581 -0.11311006 0.0025190834
0.06994599 -0.061893843 -0.06358611 0.094371974 0.13950324 -0.021632561 -0.014940027 0.11624144
0.09874044 0.077374384 0.043261547 0.039616123 0.08818668 0.11666544 -0.07772493 -0.029615033
0.026765723 0.11016087 0.090597615 0.1074947 0.124177024 0.19643736 0.014195655 0.09783351
0.14639013 -0.13407613 -2.6752854e-05 0.02830615 -0.0516689 0.12905297 -0.0077238185 0.19883817

fc2.bias f4 [32]
00000000: 84b1 2b3e 2f77 9a3c 173e 913d 1ef1 d83c
00000010: 541e 10be b0d7 07bd 494a 393e 8fe2 993d
00000020: aa3f 3dbd f6b1 85bc 79b9 84bc c9cf 89bd
00000030: e43e 50bc 871d 9a3d 544b 16bd 1559 183e
00000040: 93a5 d2bd f563 393e 6948 43bc 8266 1c3e
00000050: 820e 333d a2fc 0e3e 76dc c13d 1ee8 e33d
00000060: 9239 b83d 5bf0 8c3d 8548 953d 2bac 933d
00000070: 6ea0 c63d 1f3c 113e a5b7 5ebd 73b7 273e
0.16766936 0.01885566 0.07091921 0.026482161 -0.1407407 -0.03316468 0.18094744 0.07513916
-0.046203293 -0.01632021 -0.016201722 -0.06729085 -0.012710307 0.07525163 -0.036692932 0.14877732
-0.10285487 0.18104537 -0.011919119 0.15273479 0.043715008 0.1396356 0.09465878 0.11128257
0.08995356 0.06881782 0.07289223 0.07210573 0.09698568 0.1418309 -0.054374356 0.16378574

fc3.weight f4 [4, 32]
00000000: f442 85be 6d0d b7bd 9c31 3c3d 7795 ffbd
00000010: 4f2d 803d b6cf 84be 1fc1 88be 4806 8dbe
00000020: 7d1c c43d 3f3c a0bc 5c2f a23d 87d2 4cbe
00000030: 8bb4 6abc d668 99be e269 b4bb 6104 06be
00000040: 35f5 603d 5597 f5bd cdaa 073d 8655 6fbd
00000050: b330 9fbd bde0 78be 8ff1 80be 5958 48be
00000060: 8460 093e 1a04 06bd ca0c 60be 112a 13bd
00000070: 1192 ab3d 356a acbd 2480 5e3d 95fd 763d
00000080: 87ec 023e 9618 40be ef51 d23d 1205 60bd
00000090: b8a8 b23d 45cf 12bd d41f d6bb a490 543e
000000a0: e637 a4bc c1a3 e33c 7217 b0bd 114f 62be
000000b0: ea46 ecbd fe4f dcbc 83ba 2cbe 2876 00be
000000c0: 585d a5bd c32b bf3d cbff 903e fe28 7d3e
000000d0: cad3 d03d 2a7c e9bc 9409 273e d8c6 4a3e
000000e0: 256d 073d 2a5e 3e3d 2949 963d 451f 583e
000000f0: ba24 6cbe 5e14 193d 4c21 183d 05b5 473e
00000100: 722d 9abc ab8a a7bd cfc7 88bd 348f d23c
00000110: 41b9 f4bd 1ef0 33bb 547e 313e bf44 ffbc
00000120: de78 bebd 49a3 203e cf29 223e 6e59 17bd
00000130: 3483 303e e654 ec3d 98d1 553e 49f8 1fbe
00000140: 9a98 23be edf9 84be b0d9 5cbe af14 22be
00000150: 313e 23be bbba 82bd 513a 943b cf46 363e
00000160: f56c 54bd 3376 1e3e a0bf 01be 255a b23d
00000170: 0312 133d 5126 543e 3d0d e83d bb9e 18be
00000180: 8202 1f3d 53bb 323e 8455 8cbe c818 7dbe
00000190: 370e b6bd 7e99 d33d c739 7a3d f86e a73d
000001a0: c530 1b3d 5c89 f0bd 7087 f53d 320a 903e
000001b0: 99c6 a4bd 4711 333c 847a 84be ef78 743e
000001c0: f626 e5bd cc56 cabd 90ae 3dbd 6c5c 41be
000001d0: 759a 653e 2fe5 6e3e 8080 82bd 9129 70be
000001e0: e5ed 0d3e 5d8f 3ebe a20e 33be d1e5 53bd
000001f0: 8aeb 853e 06e8 f1bc fce5 fb3b ac37 f8bd
-0.26027644 -0.08938108 0.04594575 -0.1247968 0.06258642 -0.2593972 -0.2670984 -0.27543855
0.09575746 -0.019559978 0.07919189 -0.20002185 -0.014325271 -0.29962796 -0.0055057863 -0.13087608
0.054921348 -0.11991755 0.033121873 -0.05843117 -0.077729605 -0.24304481 -0.25184295 -0.19564952
0.13415724 -0.032718755 -0.21879879 -0.03592879 0.08377469 -0.08418695 0.054321423 0.06030043
0.1278554 -0.18759379 0.10269534 -0.054692335 0.08723587 -0.0358422 -0.006534556 0.20758301
-0.020046186 0.027788045 -0.08598222 -0.22100474 -0.11536963 -0.026893612 -0.16868024 -0.12545073
-0.080744445 0.09334519 0.28320155 0.24722669 0.101966456 -0.028501589 0.16312248 0.19802415
0.033063073 0.04647652 0.07338173 0.21105678 -0.23060885 0.03737294 0.03714113 0.19502647
-0.018820498 -0.08180746 -0.066787355 0.02570305 -0.11949397 -0.0027456353 0.17333347 -0.03116071
-0.09300397 0.15687288 0.15836261 -0.03695052 0.1723755 0.115396306 0.20880735 -0.15622057
-0.15976182 -0.25971928 -0.21567416 -0.15828203 -0.15941693 -0.06383272 0.0045235534 0.17800449
-0.051861722 0.15474777 -0.12670755 0.087086 0.03590585 0.20717742 0.1133065 -0.14904301
0.03882075 0.17454271 -0.27408993 -0.24716485 -0.0888943 0.10332011 0.061090257 0.081754625
0.037888307 -0.11744949 0.11988723 0.28132778 -0.08045692 0.010929412 -0.25874722 0.23874258
-0.11189072 -0.098798364 -0.046309054 -0.18882912 0.22422202 0.23329614 -0.06372166 -0.23453356
0.13860281 -0.18609376 -0.1748605 -0.051732842 0.26156265 -0.029529583 0.0076873284 -0.121199936

fc3.bias f4 [4]
00000000: f67a 32be d2b5 d0bc abb4 97bd a3dc 48be
-0.17429718 -0.025477324 -0.074075066 -0.19615416
