trained_riskScore_model.pth (torch, 14312 bytes, 6 tensors)

fc1.weight f4 [64, 9]
000000 65 5f 89 be 6c 1d 72 be af 4d 8f be 50 0f c3 3c
       -0.26830593 -0.23644036 -0.27988955 0.023811013
000010 36 e0 10 be 0f c6 db 3e 7a 28 be bc 62 00 9f 3e
       -0.1414803 0.42924544 -0.02321266 0.3105498
000020 de c0 3d bd 95 57 65 be 05 17 db 3e 0b 86 3b 3d
       -0.04632651 -0.22396691 0.42791 0.04578213
000030 ad e7 07 be 97 c8 90 3e f5 78 a8 3e 3e 54 a4 bd
       -0.13271971 0.28278038 0.32904783 -0.080238804
000040 06 01 bb 3e 4f 9f f0 3d 46 ad 5a bc 8d b6 16 be
       0.36524218 0.11749136 -0.013346976 -0.14718075
000050 a7 ff ce bc 5a 72 5f be 11 1c b3 3e a8 81 1b be
       -0.025268389 -0.21820965 0.3498235 -0.15186179
000060 c4 27 03 be 92 02 1c bb 88 39 87 bd c6 50 8b be
       -0.12808138 -0.0023805243 -0.0660277 -0.27210063
000070 d0 30 47 3e b4 65 cf be 76 6d 0c be ab 2a 50 3e
       0.19452214 -0.4050728 -0.13713631 0.20328777
000080 29 87 77 be fc 51 9a 3e c0 44 42 3e 63 4c b3 3e
       -0.24172653 0.30140674 0.18971539 0.35019216
000090 c7 e8 31 be 82 48 5e 3e db f0 11 be 03 33 31 3e
       -0.17373954 0.21707347 -0.14252035 0.17304616
0000a0 d9 fe ae be 21 43 81 be 97 58 68 3e bf 81 da bd
       -0.34178808 -0.25246528 0.22690044 -0.10669278
0000b0 95 38 8d 3e 81 15 30 3d 41 75 c5 3d d2 8e b5 3e
       0.2758223 0.042989258 0.09641505 0.35460526
0000c0 db a8 6e 3d 80 2a 7e 3e 65 a0 8a be fc c1 37 be
       0.058266502 0.248209 -0.27075496 -0.17945093
0000d0 2f 3c b1 be 82 e3 40 3d 24 94 47 3e 13 ba 8f bd
       -0.3461623 0.04709197 0.19490105 -0.07017913
0000e0 55 d8 a8 be 55 30 b0 be bf f2 aa 3d 61 8c 3e bd
       -0.32977548 -0.34411874 0.083470814 -0.046520595
0000f0 a9 5f ad 3e 64 e2 89 3e 0c 27 47 be 76 00 bb 3c
       0.33862045 0.26930535 -0.19448489 0.022827368
000100 64 e8 c0 3e 3e f8 e5 bd 2b ca 95 3e 76 7b 21 bd
       0.376773 -0.11228989 0.29255804 -0.039424382
000110 1c 35 1b 3e bd 11 8a 3e 71 76 6c 3e 4e 71 f8 3d
       0.15156978 0.26966658 0.23092057 0.12130986
000120 55 0d c2 3d 99 6b 06 bd b0 e1 b2 be 60 79 a9 3e
       0.09475199 -0.032817457 -0.3493781 0.33100414
000130 23 12 88 be 5a f1 8f bd 1c b8 25 3e 14 8f f8 3d
       -0.26576337 -0.07028456 0.16183513 0.12136665
000140 8e 5c c7 3d e7 bb db 3d 23 67 8f 3e f9 17 28 be
       0.0973445 0.10729199 0.28008375 -0.16415395
000150 24 dd 42 bd fc c0 6b 3e 3f f9 ba 3e d9 ae 4c 3e
       -0.047574177 0.23022836 0.36518285 0.19988574
000160 a9 cc 22 be 51 85 c6 3e 3c 25 af bd 47 10 17 3e
       -0.15898384 0.38773587 -0.08552024 0.14752303
000170 a0 4b a5 bc 9f 92 19 3e a8 7b ba 3e ec d7 59 3e
       -0.020177662 0.14997338 0.36422467 0.21273774
000180 71 5e 92 3e 1b 5f d2 3e a7 2f e7 3d a6 c2 66 be
       0.28587678 0.41088185 0.11288386 -0.2253519
000190 b4 e6 2a be 13 f7 8b be 96 2e 26 3d 64 dd ef 3d
       -0.16689569 -0.2733694 0.04057177 0.11712149
0001a0 91 2d d4 3d d1 8d 49 3e 33 71 0b bd 71 45 8c 3d
       0.103602536 0.19683005 -0.034043502 0.068491824
0001b0 1d 5e be 3d 60 0d 00 3d 50 cc a0 be 3b d2 85 bd
       0.092952944 0.031262755 -0.31405878 -0.06534239
0001c0 cd a8 88 3e 43 5b 43 3e 9a fe e9 bc 1a e4 45 3e
       0.26691285 0.19077782 -0.028563786 0.19325295
0001d0 84 45 4b be 20 d6 b5 bd 45 95 eb bd cc 46 c4 be
       -0.19850737 -0.08878732 -0.1150308 -0.38335264
0001e0 9b fc 4e 3e a2 f5 79 3b 34 ca 86 3e 80 1e 1f be
       0.20213549 0.0038140793 0.26326144 -0.15538979
0001f0 02 7b b7 3d e2 78 db 3e 34 65 de bd 53 77 80 bb
       0.08959009 0.42865664 -0.10859147 -0.0039204746
000200 2e 13 a0 bd 15 1f 5b be f5 e1 96 3d 8e 64 0e be
       -0.07816158 -0.21398576 0.07367317 -0.13905546
000210 eb 3d 89 3e 08 31 cb bd d8 7d 6b be 88 bd 82 3d
       0.26805052 -0.09921461 -0.22997224 0.063838065
000220 26 4d aa be 41 38 9a be 8a 30 8a be 3d 3d c4 3e
       -0.33261985 -0.30121043 -0.26990157 0.3832797
000230 4f 38 19 3e 71 78 af 3e e5 3b 4d 3e ea d4 37 be
       0.14962886 0.34271577 0.20042379 -0.17952314
000240 b6 99 ac be 58 f9 50 3d 2a 0c 60 bd 4c 80 38 be
       -0.33711022 0.051019043 -0.0546991 -0.18017691
000250 db 1d 7e 3e 77 3f 8b bd 9d 70 5f bd 1f 92 5c 3e
       0.24816076 -0.06799214 -0.054550756 0.21540116
000260 e6 dd 4c 3e f8 05 35 3e 88 c2 f2 bd 47 55 b6 bd
       0.20006523 0.17678058 -0.1185351 -0.08902984
000270 4f 66 93 3e e8 5e 48 be a0 d3 be 3e cc 3c 0d 3e
       0.28788993 -0.19567454 0.37270832 0.13792723
000280 54 e7 41 be 36 2e b0 3e 2e 51 dc bc ba 93 47 3e
       -0.18935901 0.34410256 -0.026894178 0.19489947
000290 5d 41 45 3e c9 46 12 3e fd 6d 63 3e 01 17 76 3e
       0.19263215 0.14284815 0.22209926 0.24032213
0002a0 01 0c 25 3e c5 a1 98 3e e1 6b 94 be 72 a0 4f be
       0.1611786 0.2981092 -0.28988555 -0.20276049
0002b0 6f c8 6a bd 1d 5d 13 3e bd ca 46 be 86 00 a1 be
       -0.057320055 0.14390989 -0.19413276 -0.31445712
0002c0 57 3b 12 3e 0c 16 7a 3e ad a1 e2 3d dc 21 c1 3d
       0.14280449 0.24422473 0.110659935 0.09430286
0002d0 3f 67 6a be 93 0b 4a 3c be 76 35 be a4 83 fa 3b
       -0.22890948 0.012331861 -0.17721078 0.0076450873
0002e0 73 c7 08 be b8 48 94 3e c8 68 26 3b 94 23 0c 3e
       -0.13357334 0.2896173 0.0025392044 0.13685447
0002f0 b6 c7 a5 3d d0 48 44 be 8d 80 a1 3e 20 9c b5 3e
       0.080947325 -0.19168401 0.3154339 0.35470676
000300 d9 e8 d0 3d 09 65 99 3e fc e0 01 be 68 db eb 3d
       0.10200662 0.29959896 -0.12683481 0.11516458
000310 c3 0a 64 be d0 09 14 3d 06 22 33 be dd 35 92 be
       -0.2226973 0.03614217 -0.17493448 -0.2855672
000320 3e bb 0a 3e 89 7b 64 3d 22 08 33 b9 37 6b b7 3e
       0.1354799 0.055781875 -0.000170738 0.35823986
000330 9f d2 0e 3e 0b 51 49 3e ec 66 49 be 03 c6 66 be
       0.13947533 0.19659822 -0.19668168 -0.22536473
000340 d3 64 c0 3e 49 ae 55 3e fd 99 a7 3e 96 16 78 3d
       0.37576923 0.20867266 0.3273467 0.060568415
000350 38 c1 0a be f8 a7 6c 3e 10 03 12 be 27 97 2f bd
       -0.1355027 0.2311095 -0.14258981 -0.04286876
000360 36 5d 82 be 42 f6 b9 bd a8 9c c8 bd b5 ac 8f 3e
       -0.2546174 -0.09080173 -0.09795505 0.28061453
000370 aa aa fa 3d a9 d0 22 3e a1 f3 3a bd c8 14 7a 3e
       0.12239583 0.1589991 -0.0456425 0.2442199
000380 33 dc 09 be f9 70 97 bd 35 e8 12 bd a9 b1 86 3e
       -0.13462906 -0.07394595 -0.03586598 0.2630742
000390 41 1e f1 bd bd 29 13 3e 85 43 fd bd b6 21 fc ba
       -0.117733486 0.1437139 -0.12366394 -0.0019236121
0003a0 7d 1a 1d 3e 87 7f ad bb 2a c6 8a bc fe 5d 8e be
       0.15342136 -0.0052947435 -0.016940195 -0.27806085
0003b0 d3 36 24 3e 21 a1 1f bb 50 7b 4a 3e 94 92 89 be
       0.16036539 -0.0024357515 0.19773602 -0.26869643
0003c0 af 38 28 be 18 1c 9a 3d ee fd b7 3e df 6a 60 3b
       -0.16427873 0.0752489 0.3593592 0.0034243388
0003d0 9b 63 8c 3e fe de 38 be 6e 9b 8d 3e 9f 1b 69 bd
       0.27419743 -0.18053815 0.27657646 -0.056911107
0003e0 ca 28 1b be d2 f6 8d 3d d6 40 7b be 67 71 d4 3b
       -0.15152279 0.06931843 -0.24536452 0.006483245
0003f0 28 ae 5d 3d 15 52 66 be b1 61 88 3e 80 7f a1 be
       0.054121166 -0.2249225 0.26637033 -0.31542587

fc1.bias f4 [64]
000000 fd 1e 4c 3e da 61 f2 bb fc 73 ee bd dd 9c ee bd
       0.19933696 -0.0073969187 -0.11643216 -0.11651013
000010 8f e9 de 3c e3 98 a2 3e 58 b5 ca bd 34 69 a3 bd
       0.027210979 0.31757268 -0.0989787 -0.0797905
000020 e3 43 fe 3d 53 aa 0e 3e 0e 9f 56 be 36 ef 30 3e
       0.12415292 0.13932161 -0.20959112 0.17278752
000030 a5 cb 6a bd 1b 91 2a be 5c 03 fc 3b d0 7b 19 3c
       -0.057323117 -0.16656916 0.00769083 0.009367898
000040 e7 bc b3 3d 00 ef f2 bc 42 f3 2d bb 16 3e bc bd
       0.08776265 -0.02965498 -0.0026542698 -0.091915295
000050 c9 36 c8 3c 3d 0d 88 bd d6 a8 9f 3e ac 11 c1 bc
       0.024440186 -0.0664315 0.311835 -0.023567997
000060 54 b8 83 3e 89 ad 94 be 59 63 91 bd c6 92 73 3e
       0.2572657 -0.29038647 -0.07099027 0.23786458
000070 c5 42 d9 3e 9c a3 89 bd ea 16 8e 3e 5c 99 94 3e
       0.42433754 -0.06720659 0.27751857 0.29023254
000080 96 13 30 3e a9 4e 85 3e 02 65 6f be 1e 65 84 bd
       0.17194971 0.26036575 -0.23378375 -0.06464599
000090 e9 f9 b4 bd 94 50 64 bb 48 11 89 3e 7a 15 cb 3e
       -0.08836729 -0.0034838067 0.26770997 0.39664823
0000a0 96 1d 9f 3e 37 de 0e 3d 34 da 01 bc 46 c1 cc 3e
       0.3107726 0.03487989 -0.007925559 0.39991206
0000b0 f2 56 90 3c 59 64 53 be 67 59 d9 bd 60 4d 74 3e
       0.017619584 -0.20643748 -0.10612755 0.23857641
0000c0 d5 bb 97 bd 20 98 49 bb 48 7a de bd 39 c0 3f 3d
       -0.07408873 -0.003076084 -0.10863167 0.046814177
0000d0 71 3d 21 3d ce c8 43 3d 48 f2 0c be c1 d8 c2 3e
       0.039365236 0.047798924 -0.13764298 0.38055995
0000e0 70 1d 1b bd 20 21 3b 3e 63 9c 57 be c3 84 bb 3d
       -0.03786987 0.18274355 -0.2105575 0.09156182
0000f0 e1 d4 2e be 9e f7 09 3b 8e 93 de bd 02 39 bd 3d
       -0.17073394 0.0021052132 -0.108679876 0.09239389

fc2.weight f4 [32, 64]
000000 7f 71 ac bd 61 86 13 3d 7f e6 03 be 18 6c d7 bd
       -0.08420085 0.036016826 -0.12880896 -0.10518664
000010 97 cf 1b bd c3 76 3b 3d 30 a4 f2 bc 3e e8 db 3c
       -0.03803977 0.045767557 -0.029619306 0.02684414
000020 dc 95 ef bd 1f 90 22 bc 78 17 89 3c f1 5f b1 3c
       -0.11698505 -0.009922056 0.016734824 0.021652194
000030 ab 4a 70 39 03 b0 bd 3c 81 70 07 be 67 02 97 3d
       0.00022916 0.023155218 -0.1322651 0.07373505
000040 bf 52 5d 3d 47 d4 cf bd 9c 62 c7 bd 46 5e 99 3d
       0.05403399 -0.101479106 -0.09735605 0.07488684
000050 43 ed c8 bd 62 2e 18 3d f1 da d6 bd 81 49 c6 bd
       -0.09810879 0.03715361 -0.104909785 -0.096819885
000060 5e 49 ae ba 77 6a 7b bd cf ae 98 bd 28 ea 0d be
       -0.0013297012 -0.06138083 -0.07455217 -0.13858855
000070 17 45 d1 b9 25 d6 c0 bd 79 08 ff bc 0f 5a c0 3d
       -0.00039915062 -0.09415845 -0.03113197 0.09392177
000080 24 f4 23 bd 13 ee d6 bd e7 49 35 bd 07 62 c1 bd
       -0.040027753 -0.10494628 -0.044259932 -0.09442525
000090 48 f1 07 bb 7f d5 ad bd 45 ad d9 bc 24 99 00 bc
       -0.002074318 -0.08487987 -0.02657188 -0.007849012
0000a0 1a 17 c0 3d 0e e5 3b bc e0 59 8e 3d 5e 82 ac bd
       0.09379406 -0.011468185 0.06950736 -0.08423303
0000b0 e6 76 87 bc f0 fc a2 3d 9f 1a 08 be ad d6 13 3c
       -0.016536187 0.079584 -0.13291405 0.009023351
0000c0 34 2b 73 bd 93 60 15 be 13 5e 30 bd 5e c8 a2 bd
       -0.059367374 -0.14587621 -0.043058466 -0.07948373
0000d0 9b 9d 13 3d 05 ed a0 bc 26 58 c7 3d 8d 19 e2 3c
       0.036038976 -0.01964427 0.0973361 0.027600074
0000e0 3f f4 8d bd ab c7 f3 bd d5 7f b6 bc 72 dd 10 be
       -0.06931352 -0.11903318 -0.022277752 -0.14146975
0000f0 aa f2 07 bd 44 06 58 bd 91 a2 d0 bd 09 39 11 3c
       -0.033190407 -0.05274035 -0.10187257 0.008863696
000100 57 b4 76 3d a9 f4 1b 3d b6 69 e8 bc 44 46 f9 bb
       0.06023058 0.038075123 -0.02837072 -0.0076072533
000110 d3 4d 1a 3d 52 c1 ce bd 6a 07 47 bd b9 d8 71 3d
       0.037671875 -0.10095467 -0.048591055 0.059044573
000120 f6 69 f2 3c 2c 2b 51 3a 4e 1f e4 bd 69 c7 66 3d
       0.029591542 0.00079791504 -0.111387834 0.056342516
000130 55 b7 eb 3c 40 2a f1 bc 79 bc f9 bc 8f e6 f6 bd
       0.028773943 -0.029439092 -0.030485379 -0.12055694
000140 62 46 73 3d 07 82 d5 bd ce 90 04 be f0 f9 88 3d
       0.059393294 -0.104251914 -0.12945864 0.06688297
000150 f1 b8 80 3d 1c e9 4b bd 46 15 8f bd 4a 15 b5 bd
       0.06285275 -0.049782857 -0.069864795 -0.08841951
000160 92 98 ce bd 10 67 8e bb ad 22 d8 bd 53 d3 81 3d
       -0.10087694 -0.004345782 -0.10553489 0.06339135
000170 9b f0 1b 3d 24 22 cc 3d 1a f1 1f 3d 6f 79 19 3d
       0.038071256 0.09967449 0.03904829 0.037469324
000180 27 fc 44 bb c1 6a 4b 3d 40 84 06 bd f2 6e 11 be
       -0.003005752 0.049662355 -0.032840967 -0.14202479
000190 b3 68 dd 3c 00 64 8d bd d3 b6 2c bb 19 1e b3 3d
       0.027027464 -0.06903839 -0.002635409 0.08745975
0001a0 8e da 8c 3d 89 2d 04 be 2c 03 02 be 94 71 8a bb
       0.068776235 -0.12907995 -0.12696522 -0.0042249653
0001b0 c6 33 d2 3d 9a fa d1 bd f7 a0 f8 bd 39 54 b0 bd
       0.10263781 -0.102528766 -0.121400766 -0.08609814
0001c0 17 b5 01 be f5 1a 05 be f7 d7 87 3d a4 1e cf bd
       -0.12666737 -0.12998565 0.06632989 -0.10113266
0001d0 cb b7 b1 bd de 66 1d 3b d7 97 a1 3d 70 8d 4c bc
       -0.08677634 0.0024017612 0.07890289 -0.012484893
0001e0 f8 b3 a3 bc 85 19 0f be 68 20 ef bc 4c 71 0a bc
       -0.019983277 -0.13974579 -0.029190257 -0.008449864
0001f0 86 b3 b0 bc 81 8a 42 3d 5b 81 fb bb 8e ef cf bd
       -0.021569978 0.04749537 -0.0076753325 -0.10153113
000200 a8 67 92 3d 76 c8 3a 3e 5b d1 aa bd ab 11 b1 bc
       0.07148677 0.18240532 -0.08340713 -0.02161487
000210 e2 f9 15 3e 77 03 b8 3d d8 58 90 bd a9 1f 2c 3e
       0.14646104 0.08985036 -0.070481956 0.16808952
000220 b1 71 d5 3d 6b ef ad 3c 1f 38 1a 3e fd 54 fc 3d
       0.104220755 0.021232327 0.15060471 0.12320898
000230 80 82 20 3d 40 74 37 3e 0c d5 e3 bd 66 5d 8f 3d
       0.039186954 0.1791544 -0.1112462 0.07000236
000240 92 9e 50 3d bd 5d eb 3d 0a 74 1a 3e b0 14 4e 3e
       0.050932474 0.114924885 0.15083328 0.20125079
000250 c5 97 38 3e 11 66 fb 3d cc 62 31 3e 57 70 07 3e
       0.18026645 0.12275327 0.17322844 0.13226448
000260 7c 18 30 bb 6e 1a cb 3d dc dc ee 3d 5e ba 13 3e
       -0.0026870063 0.099171504 0.11663219 0.14426562
000270 61 20 6d 3d 0d 20 35 3c 66 39 06 3e bf a1 02 3e
       0.057892207 0.011055005 0.13107833 0.12757014
000280 cd eb 25 be ac c7 c8 bb 12 9a 96 bc b5 37 91 3d
       -0.16203232 -0.0061273184 -0.018384013 0.070907034
000290 86 0e c8 3d ff 7a 42 3e 3b ee 1b be 7b b9 b8 bd
       0.09768395 0.18992232 -0.15227596 -0.090197526
0002a0 cd 8c 04 3e 3d f3 be bc a2 6b 88 bb 53 67 b3 bc
       0.12944336 -0.023309344 -0.0041632215 -0.021899855
0002b0 9a 40 ca 3d 3c c6 12 bd 7d 33 2b 3e ca 07 a8 3d
       0.09875603 -0.035833582 0.1671886 0.08204611
0002c0 aa 78 80 3d 98 0d 49 3e d7 d2 13 3e 28 68 9b 3c
       0.06273015 0.19634092 0.14435898 0.018970564
0002d0 e1 b7 ef 3d 00 ea a6 3d 68 54 99 3d 52 7f 53 bd
       0.11704994 0.08150101 0.07486802 -0.051635094
0002e0 f6 cd 02 3e 47 2a f0 3d 46 6e e8 3c bd df 28 bc
       0.1277388 0.11726814 0.028372895 -0.01030725
0002f0 c4 33 60 bd 72 9b 9c 3d 80 49 b2 bb 18 c8 1a 3e
       -0.054736868 0.07646836 -0.005440891 0.15115392
000300 75 f8 c4 3c de 74 95 bc fd 98 d1 3d ca e5 5b 3d
       0.024044255 -0.018244203 0.10234258 0.05368594
000310 90 00 5c bd e9 92 52 3e 08 94 e7 3d c8 bb 14 bd
       -0.053711474 0.20563854 0.113075316 -0.036311895
000320 bf 7e 32 3b 59 71 65 bd 42 9d e9 bd 2d 00 ac 3b
       0.002723619 -0.0560163 -0.11406948 0.0052490444
000330 be 0e 0b 3e 2b be 8a bc 94 ca 9f 3c a8 71 19 3e
       0.13579842 -0.016936382 0.019505776 0.14984763
000340 26 b8 02 bc 43 14 0d 3d 58 cd d0 3c 14 33 e1 bd
       -0.007978475 0.03444315 0.02548854 -0.109960705
000350 30 03 04 be 22 5b a3 3d cc ba 04 3e 6b b6 15 3d
       -0.12891841 0.079763666 0.12961882 0.03655092
000360 b9 c3 61 3c 4f 6d 77 3d b0 25 9b bd 7a 63 0a 3e
       0.013779574 0.06040698 -0.07575548 0.1351451
000370 c3 fb 5a 3e be 3d 1d 3c c0 64 65 3a 22 94 b7 3c
       0.21385102 0.00959724 0.00087506697 0.022409502
000380 72 0b 2d 3e fb 26 af bc e3 2b ba 3c 3e 72 af bd
       0.16898897 -0.021380892 0.022726005 -0.08566712
000390 ae 59 f1 3d 46 db 87 3d 29 f3 19 3e 0c eb df 3d
       0.11784683 0.0663362 0.15034164 0.109335035
0003a0 92 ea c9 3d ac 36 43 bd 93 82 df bd fb b2 23 3d
       0.09859194 -0.04765956 -0.10913577 0.03996561
0003b0 de 2a 95 3d 15 0a 58 3d de 55 3a bd f0 b4 56 3e
       0.07283567 0.05274399 -0.045492046 0.2096746
0003c0 7e 47 c2 3d d2 21 9a 3d 20 98 7b bd 53 4d 24 bd
       0.09486292 0.07525982 -0.061424375 -0.040112805
0003d0 2d c6 52 bd 0a 4b 7a 3d ec e0 88 bd f5 d7 1c 3e
       -0.051458526 0.06110672 -0.066835254 0.15316756
0003e0 ea a8 fd 3b fa a8 8b bc 13 e5 e9 bc d9 17 81 bc
       0.0077410834 -0.017048348 -0.028551614 -0.015758442
0003f0 cc 17 ac bc e0 8b c3 bc 38 33 96 bd 19 c5 a2 bd
       -0.021007441 -0.023870409 -0.07333988 -0.0794775

fc2.bias f4 [32]
000000 9d 83 b0 bc 4b d8 d1 bd 36 d5 1e 3e 4e 00 a6 3c
       -0.021547133 -0.10246333 0.15511021 0.020263817
000010 5e 16 2c 3d b1 09 29 3d 80 05 9a 3c ca 8d ec 3d
       0.04201352 0.041269008 0.01880145 0.115504816
000020 24 df 05 3e e1 c2 ca 3d 87 0e 4c 3e 46 f4 b4 bd
       0.13073403 0.099004515 0.19927417 -0.08835654
000030 6b 52 fc 3d fa e3 2b 3d 72 c3 aa 3a 1c 5b c5 3d
       0.123204075 0.041965462 0.0013028218 0.09636518
000040 24 2d aa 3d 6e 2e 7a 3d 90 1b 28 bc ab 6f ee 3d
       0.08309391 0.061079435 -0.010260478 0.11642393
000050 f5 e7 0f 3e d5 77 24 3c 91 b8 79 3d 33 b7 69 3c
       0.14053328 0.010038336 0.060967032 0.0142648695
000060 86 81 d0 3d fa cf 25 bd d8 6f 35 bd 7a d1 a2 3d
       0.10180955 -0.040481545 -0.044296116 0.07950111
000070 69 4b bb bd 91 5a e3 3b 9c ee 5a 3d 1d c8 4d 3d
       -0.09145243 0.0069382866 0.053450212 0.05023967

fc3.weight f4 [4, 32]
000000 56 f1 9f 3d fe 97 9a 3c aa 86 3e be b6 77 78 3d
       0.07809703 0.018871304 -0.18606058 0.06066104
000010 19 c5 e2 3d 25 b0 5a bd 09 0d a0 bd 2a ae da bd
       0.1107275 -0.05339064 -0.07814986 -0.106777504
000020 48 ed e3 bd 06 59 03 be c4 6c 48 3c c4 ec b4 3d
       -0.11129242 -0.12826928 0.012232963 0.08834222
000030 73 8d 55 be 50 6b 69 be ab 39 54 bd 74 99 b3 bd
       -0.2085474 -0.22794843 -0.05181281 -0.08769503
000040 6a 1a c7 bd e5 56 c6 3d a0 6c d3 3d cd 3b 83 be
       -0.09721835 0.096845426 0.10323453 -0.25631562
000050 9f 15 fe 3d 71 82 70 3d c1 d3 9e bd 98 6b 7f be
       0.12406468 0.05871815 -0.077552326 -0.24943388
000060 3d e4 1c be f1 57 44 be ba 1e 8c be 34 4a d9 bd
       -0.15321441 -0.19174172 -0.27367193 -0.10609856
000070 b0 b1 53 3d a5 05 77 be e4 ac 3a be e3 63 49 bb
       0.051683128 -0.24123247 -0.18230015 -0.0030729703
000080 55 45 0a be 35 fd 07 be 22 b5 ab 3d c0 72 9c 3e
       -0.1350301 -0.13280185 0.08384158 0.30556297
000090 7f 04 ee bd 8f 8a 5b 3e 7a 04 07 be 14 fa 8a 3e
       -0.11621951 0.21439575 -0.13185301 0.2714392
0000a0 44 ac 1f 3e ff f9 87 bd 77 52 2b 3e 0c 63 3f bd
       0.15593058 -0.0663948 0.16730677 -0.046725318
0000b0 7b ac 08 3e 84 7b f7 3d 67 a5 43 be a4 12 c3 bd
       0.13347046 0.120841056 -0.19106065 -0.0952504
0000c0 96 79 3f 3e 8c 0c fc bd fc cd c7 bd 73 e7 c0 3d
       0.18698725 -0.123070806 -0.09756085 0.094191454
0000d0 92 b6 7f 3e 0d d3 4a be 07 69 37 bd 86 ce 1b 3d
       0.24971989 -0.19807072 -0.044777896 0.038038753
0000e0 3b 9e 66 3e 51 c4 a3 bc b4 e3 8b be 6a 36 ff 3d
       0.22521298 -0.019991072 -0.2732216 0.124615505
0000f0 48 09 d9 bd 6e d9 d1 3d 3d 39 6e 3e 51 32 06 be
       -0.105974734 0.102465495 0.23264022 -0.13105132
000100 84 db 63 bd a2 09 89 bd 4a 85 32 3e 5d 33 67 be
       -0.05562927 -0.066912904 0.17433658 -0.22578187
000110 64 c2 11 3e ef 7b 82 bd 9a 00 56 3d 73 97 6f 3d
       0.1423431 -0.06371295 0.052246667 0.058494043
000120 78 d9 36 3e 4e 81 a8 3d c6 67 d6 bc fe ef 02 bb
       0.17856395 0.08227788 -0.02617253 -0.0019979472
000130 1e 17 67 bd 60 7b 56 3e 74 39 05 3e 87 d0 1c be
       -0.05641853 0.20945501 0.13010198 -0.15313922
000140 b8 d9 3f be b3 03 4a 3e 9e b6 4c 3c eb 0f 05 3e
       -0.18735397 0.19727974 0.012494711 0.12994353
000150 b4 c3 0f be 9b 91 94 3c 6a 90 31 3e 86 76 66 3e
       -0.14039499 0.018135836 0.17340246 0.2250615
000160 24 5c 6c 3b ff 5a 68 3e 13 ca e5 bc d9 ab 56 be
       0.0036065662 0.22690962 -0.028050458 -0.20963992
000170 ec 1f d9 bd 49 5d c1 3d 8f 0c 67 bd bf 7f c0 bd
       -0.10601792 0.09441621 -0.05640846 -0.09399366
000180 b0 af 7d 3d 55 b0 ab 3d 36 76 2b 3e 52 13 c9 bd
       0.061935127 0.08383242 0.16744313 -0.09818138
000190 56 12 7a 3e c9 83 5a 3e 64 21 4d be 19 03 14 bd
       0.24421057 0.21339335 -0.20032269 -0.036135767
0001a0 12 67 ec bc 57 f8 92 bd 63 e4 e7 bd f6 b6 10 bc
       -0.028857742 -0.07176273 -0.11322858 -0.008832684
0001b0 50 a3 5d 3e 3f 9e ee bd d7 55 54 3e cf e9 c6 bd
       0.2164433 -0.11651277 0.2073587 -0.09712564
0001c0 51 7d 2a 3e d1 97 71 3e b8 83 00 be c4 84 1f 3e
       0.16649367 0.2359307 -0.12550247 0.1557799
0001d0 e1 85 c6 bd 9c 25 95 3e 12 aa 11 3e 23 ce 6e be
       -0.09693504 0.29130256 0.14225033 -0.23320822
0001e0 4c 93 88 3a c2 2e 76 be b0 2c 1f 3d e0 37 80 3e
       0.0010419874 -0.24041274 0.038860977 0.2504263
0001f0 eb 03 6a 3b 11 51 8a be a8 f7 89 be 2a c4 04 be
       0.0035707902 -0.27014974 -0.2694676 -0.12965456

fc3.bias f4 [4]
000000 78 99 8b bd 97 c0 ce 3d 8a e4 b3 bd f1 73 08 be
       -0.06816381 0.10095327 -0.08783825 -0.13325478
